2024-11-19 11:18:38,051 - TrainingLogger - INFO - Using device: cuda
2024-11-19 11:18:38,051 - TrainingLogger - INFO - Model Architecture:
2024-11-19 11:18:38,051 - TrainingLogger - INFO - 
Detailed Model Architecture:
2024-11-19 11:18:38,052 - TrainingLogger - INFO - CustomLLM(
  (he_en_model_encoder): MarianEncoder(
    (embed_tokens): Embedding(60269, 1024, padding_idx=60268)
    (embed_positions): MarianSinusoidalPositionalEmbedding(1024, 1024)
    (layers): ModuleList(
      (0-5): 6 x MarianEncoderLayer(
        (self_attn): MarianAttention(
          (k_proj): Linear(in_features=1024, out_features=1024, bias=True)
          (v_proj): Linear(in_features=1024, out_features=1024, bias=True)
          (q_proj): Linear(in_features=1024, out_features=1024, bias=True)
          (out_proj): Linear(in_features=1024, out_features=1024, bias=True)
        )
        (self_attn_layer_norm): LayerNorm((1024,), eps=1e-05, elementwise_affine=True)
        (activation_fn): ReLU()
        (fc1): Linear(in_features=1024, out_features=4096, bias=True)
        (fc2): Linear(in_features=4096, out_features=1024, bias=True)
        (final_layer_norm): LayerNorm((1024,), eps=1e-05, elementwise_affine=True)
      )
    )
  )
  (custom_embedding): EmbeddingLLM(
    (embed_tokens): Embedding(250880, 768, padding_idx=3)
    (embed_positions): OPTLearnedPositionalEmbedding(2050, 768)
  )
  (custom_decoder1): MarianDecoder(
    (embed_tokens): None
    (embed_positions): MarianSinusoidalPositionalEmbedding(1024, 1024)
    (layers): ModuleList(
      (0-5): 6 x MarianDecoderLayer(
        (self_attn): MarianAttention(
          (k_proj): Linear(in_features=1024, out_features=1024, bias=True)
          (v_proj): Linear(in_features=1024, out_features=1024, bias=True)
          (q_proj): Linear(in_features=1024, out_features=1024, bias=True)
          (out_proj): Linear(in_features=1024, out_features=1024, bias=True)
        )
        (activation_fn): ReLU()
        (self_attn_layer_norm): LayerNorm((1024,), eps=1e-05, elementwise_affine=True)
        (encoder_attn): MarianAttention(
          (k_proj): Linear(in_features=1024, out_features=1024, bias=True)
          (v_proj): Linear(in_features=1024, out_features=1024, bias=True)
          (q_proj): Linear(in_features=1024, out_features=1024, bias=True)
          (out_proj): Linear(in_features=1024, out_features=1024, bias=True)
        )
        (encoder_attn_layer_norm): LayerNorm((1024,), eps=1e-05, elementwise_affine=True)
        (fc1): Linear(in_features=1024, out_features=4096, bias=True)
        (fc2): Linear(in_features=4096, out_features=1024, bias=True)
        (final_layer_norm): LayerNorm((1024,), eps=1e-05, elementwise_affine=True)
      )
    )
  )
  (linear1): Linear(in_features=1024, out_features=768, bias=True)
  (main_layers): ModuleList(
    (0-11): 12 x OPTDecoderLayer(
      (self_attn): OPTSdpaAttention(
        (k_proj): Linear(in_features=768, out_features=768, bias=True)
        (v_proj): Linear(in_features=768, out_features=768, bias=True)
        (q_proj): Linear(in_features=768, out_features=768, bias=True)
        (out_proj): Linear(in_features=768, out_features=768, bias=True)
      )
      (activation_fn): ReLU()
      (self_attn_layer_norm): LayerNorm((768,), eps=1e-05, elementwise_affine=True)
      (fc1): Linear(in_features=768, out_features=3072, bias=True)
      (fc2): Linear(in_features=3072, out_features=768, bias=True)
      (final_layer_norm): LayerNorm((768,), eps=1e-05, elementwise_affine=True)
    )
  )
  (linear2): Linear(in_features=768, out_features=512, bias=True)
  (custom_encoder2): MarianEncoder(
    (embed_tokens): None
    (embed_positions): MarianSinusoidalPositionalEmbedding(512, 512)
    (layers): ModuleList(
      (0-5): 6 x MarianEncoderLayer(
        (self_attn): MarianAttention(
          (k_proj): Linear(in_features=512, out_features=512, bias=True)
          (v_proj): Linear(in_features=512, out_features=512, bias=True)
          (q_proj): Linear(in_features=512, out_features=512, bias=True)
          (out_proj): Linear(in_features=512, out_features=512, bias=True)
        )
        (self_attn_layer_norm): LayerNorm((512,), eps=1e-05, elementwise_affine=True)
        (activation_fn): SiLU()
        (fc1): Linear(in_features=512, out_features=2048, bias=True)
        (fc2): Linear(in_features=2048, out_features=512, bias=True)
        (final_layer_norm): LayerNorm((512,), eps=1e-05, elementwise_affine=True)
      )
    )
  )
  (en_he_decoder): MarianDecoder(
    (embed_tokens): Embedding(65839, 512, padding_idx=65838)
    (embed_positions): MarianSinusoidalPositionalEmbedding(512, 512)
    (layers): ModuleList(
      (0-5): 6 x MarianDecoderLayer(
        (self_attn): MarianAttention(
          (k_proj): Linear(in_features=512, out_features=512, bias=True)
          (v_proj): Linear(in_features=512, out_features=512, bias=True)
          (q_proj): Linear(in_features=512, out_features=512, bias=True)
          (out_proj): Linear(in_features=512, out_features=512, bias=True)
        )
        (activation_fn): SiLU()
        (self_attn_layer_norm): LayerNorm((512,), eps=1e-05, elementwise_affine=True)
        (encoder_attn): MarianAttention(
          (k_proj): Linear(in_features=512, out_features=512, bias=True)
          (v_proj): Linear(in_features=512, out_features=512, bias=True)
          (q_proj): Linear(in_features=512, out_features=512, bias=True)
          (out_proj): Linear(in_features=512, out_features=512, bias=True)
        )
        (encoder_attn_layer_norm): LayerNorm((512,), eps=1e-05, elementwise_affine=True)
        (fc1): Linear(in_features=512, out_features=2048, bias=True)
        (fc2): Linear(in_features=2048, out_features=512, bias=True)
        (final_layer_norm): LayerNorm((512,), eps=1e-05, elementwise_affine=True)
      )
    )
  )
  (lm_head): Linear(in_features=512, out_features=65839, bias=False)
)
2024-11-19 11:18:38,054 - TrainingLogger - INFO - 
Total parameters: 599,027,968
2024-11-19 11:18:38,054 - TrainingLogger - INFO - Trainable parameters: 122,185,984
2024-11-19 11:18:38,054 - TrainingLogger - INFO - Percentage of trainable parameters: 20.40%
2024-11-19 11:18:38,054 - TrainingLogger - INFO - 
Detailed Layer-wise Information:
2024-11-19 11:18:38,054 - TrainingLogger - INFO - 
…
