2024-11-19 11:33:31,949 - TrainingLogger - INFO - Using device: cuda
2024-11-19 11:33:31,949 - TrainingLogger - INFO - Model Architecture:
2024-11-19 11:33:31,949 - TrainingLogger - INFO - 
Detailed Model Architecture:
2024-11-19 11:33:31,950 - TrainingLogger - INFO - CustomLLM(
  (he_en_model_encoder): MarianEncoder(
    (embed_tokens): Embedding(60269, 1024, padding_idx=60268)
    (embed_positions): MarianSinusoidalPositionalEmbedding(1024, 1024)
    (layers): ModuleList(
      (0-5): 6 x MarianEncoderLayer(
        (self_attn): MarianAttention(
          (k_proj): Linear(in_features=1024, out_features=1024, bias=True)
          (v_proj): Linear(in_features=1024, out_features=1024, bias=True)
          (q_proj): Linear(in_features=1024, out_features=1024, bias=True)
          (out_proj): Linear(in_features=1024, out_features=1024, bias=True)
        )
        (self_attn_layer_norm): LayerNorm((1024,), eps=1e-05, elementwise_affine=True)
        (activation_fn): ReLU()
        (fc1): Linear(in_features=1024, out_features=4096, bias=True)
        (fc2): Linear(in_features=4096, out_features=1024, bias=True)
        (final_layer_norm): LayerNorm((1024,), eps=1e-05, elementwise_affine=True)
      )
    )
  )
  (embed_tokens): Embedding(250880, 1024)
  (align_he_en): Sequential(
    (0): Linear(in_features=1024, out_features=2048, bias=True)
    (1): LayerNorm((2048,), eps=1e-05, elementwise_affine=True)
    (2): GELU(approximate='none')
    (3): Dropout(p=0.1, inplace=False)
    (4): Linear(in_features=2048, out_features=1024, bias=True)
    (5): LayerNorm((1024,), eps=1e-05, elementwise_affine=True)
  )
  (custom_decoder1): MarianDecoder(
    (embed_tokens): None
    (embed_positions): MarianSinusoidalPositionalEmbedding(1024, 1024)
    (layers): ModuleList(
      (0-5): 6 x MarianDecoderLayer(
        (self_attn): MarianAttention(
          (k_proj): Linear(in_features=1024, out_features=1024, bias=True)
          (v_proj): Linear(in_features=1024, out_features=1024, bias=True)
          (q_proj): Linear(in_features=1024, out_features=1024, bias=True)
          (out_proj): Linear(in_features=1024, out_features=1024, bias=True)
        )
        (activation_fn): GELUActivation()
        (self_attn_layer_norm): LayerNorm((1024,), eps=1e-05, elementwise_affine=True)
        (encoder_attn): MarianAttention(
          (k_proj): Linear(in_features=1024, out_features=1024, bias=True)
          (v_proj): Linear(in_features=1024, out_features=1024, bias=True)
          (q_proj): Linear(in_features=1024, out_features=1024, bias=True)
          (out_proj): Linear(in_features=1024, out_features=1024, bias=True)
        )
        (encoder_attn_layer_norm): LayerNorm((1024,), eps=1e-05, elementwise_affine=True)
        (fc1): Linear(in_features=1024, out_features=4096, bias=True)
        (fc2): Linear(in_features=4096, out_features=1024, bias=True)
        (final_layer_norm): LayerNorm((1024,), eps=1e-05, elementwise_affine=True)
      )
    )
  )
  (main_model): BloomModel(
    (word_embeddings): None
    (word_embeddings_layernorm): LayerNorm((1024,), eps=1e-05, elementwise_affine=True)
    (h): ModuleList(
      (0-23): 24 x BloomBlock(
        (input_layernorm): LayerNorm((1024,), eps=1e-05, elementwise_affine=True)
        (self_attention): BloomAttention(
          (query_key_value): Linear(in_features=1024, out_features=3072, bias=True)
          (dense): Linear(in_features=1024, out_features=1024, bias=True)
          (attention_dropout): Dropout(p=0.0, inplace=False)
        )
        (post_attention_layernorm): LayerNorm((1024,), eps=1e-05, elementwise_affine=True)
        (mlp): BloomMLP(
          (dense_h_to_4h): Linear(in_features=1024, out_features=4096, bias=True)
          (gelu_impl): BloomGelu()
          (dense_4h_to_h): Linear(in_features=4096, out_features=1024, bias=True)
        )
      )
    )
    (ln_f): LayerNorm((1024,), eps=1e-05, elementwise_affine=True)
  )
  (align_en_he): Sequential(
    (0): Linear(in_features=1024, out_features=1024, bias=True)
    (1): LayerNorm((1024,), eps=1e-05, elementwise_affine=True)
    (2): GELU(approximate='none')
    (3): Dropout(p=0.1, inplace=False)
    (4): Linear(in_features=1024, out_features=512, bias=True)
    (5): LayerNorm((512,), eps=1e-05, elementwise_affine=True)
  )
  (custom_encoder2): MarianEncoder(
    (embed_tokens): None
    (embed_positions): MarianSinusoidalPositionalEmbedding(512, 512)
    (layers): ModuleList(
      (0-5): 6 x MarianEncoderLayer(
        (self_attn): MarianAttention(
          (k_proj): Linear(in_features=512, out_features=512, bias=True)
          (v_proj): Linear(in_features=512, out_features=512, bias=True)
          (q_proj): Linear(in_features=512, out_features=512, bias=True)
          (out_proj): Linear(in_features=512, out_features=512, bias=True)
        )
        (self_attn_layer_norm): LayerNorm((512,), eps=1e-05, elementwise_affine=True)
        (activation_fn): SiLU()
        (fc1): Linear(in_features=512, out_features=2048, bias=True)
        (fc2): Linear(in_features=2048, out_features=512, bias=True)
        (final_layer_norm): LayerNorm((512,), eps=1e-05, elementwise_affine=True)
      )
    )
  )
  (en_he_decoder): MarianDecoder(
    (embed_tokens): Embedding(65839, 512, padding_idx=65838)
    (embed_positions): MarianSinusoidalPositionalEmbedding(512, 512)
    (layers): ModuleList(
      (0-5): 6 x MarianDecoderLayer(
        (self_attn): MarianAttention(
          (k_proj): Linear(in_features=512, out_features=512, bias=True)
          (v_proj): Linear(in_features=512, out_features=512, bias=True)
          (q_proj): Linear(in_features=512, out_features=512, bias=True)
          (out_proj): Linear(in_features=512, out_features=512, bias=True)
        )
        (activation_fn): SiLU()
        (self_attn_layer_norm): LayerNorm((512,), eps=1e-05, elementwise_affine=True)
        (encoder_attn): MarianAttention(
          (k_proj): Linear(in_features=512, out_features=512, bias=True)
          (v_proj): Linear(in_features=512, out_features=512, bias=True)
          (q_proj): Linear(in_features=512, out_features=512, bias=True)
          (out_proj): Linear(in_features=512, out_features=512, bias=True)
        )
        (encoder_attn_layer_norm): LayerNorm((512,), eps=1e-05, elementwise_affine=True)
        (fc1): Linear(in_features=512, out_features=2048, bias=True)
        (fc2): Linear(in_features=2048, out_features=512, bias=True)
        (final_layer_norm): LayerNorm((512,), eps=1e-05, elementwise_affine=True)
      )
    )
  )
  (lm_head): Linear(in_features=512, out_features=65839, bias=False)
)
2024-11-19 11:33:31,951 - TrainingLogger - INFO - 
Total parameters: 883,537,920
2024-11-19 11:33:31,951 - TrainingLogger - INFO - Trainable parameters: 126,786,048
2024-11-19 11:33:31,951 - TrainingLogger - INFO - Percentage of trainable parameters: 14.35%
2024-11-19 11:33:31,951 - TrainingLogger - INFO - 
Detailed Layer-wise Information:
2024-11-19 11:33:31,951 - TrainingLogger - INFO - 
…
