2024-10-13 11:52:15,259 - TrainingLogger - INFO - Using device: cpu
2024-10-13 11:52:15,283 - TrainingLogger - INFO - Model Architecture:
2024-10-13 11:52:15,284 - TrainingLogger - INFO - 
Detailed Model Architecture:
2024-10-13 11:52:15,531 - TrainingLogger - INFO - CustomLLM(
  (he_en_model_encoder): MarianEncoder(
    (embed_tokens): Embedding(60269, 1024, padding_idx=60268)
    (embed_positions): MarianSinusoidalPositionalEmbedding(1024, 1024)
    (layers): ModuleList(
      (0-5): 6 x MarianEncoderLayer(
        (self_attn): MarianAttention(
          (k_proj): Linear(in_features=1024, out_features=1024, bias=True)
          (v_proj): Linear(in_features=1024, out_features=1024, bias=True)
          (q_proj): Linear(in_features=1024, out_features=1024, bias=True)
          (out_proj): Linear(in_features=1024, out_features=1024, bias=True)
        )
        (self_attn_layer_norm): LayerNorm((1024,), eps=1e-05, elementwise_affine=True)
        (activation_fn): ReLU()
        (fc1): Linear(in_features=1024, out_features=4096, bias=True)
        (fc2): Linear(in_features=4096, out_features=1024, bias=True)
        (final_layer_norm): LayerNorm((1024,), eps=1e-05, elementwise_affine=True)
      )
    )
  )
  (custom_embedding): EmbeddingLLM(
    (embed_tokens): Embedding(50272, 512, padding_idx=1)
    (project_in): Linear(in_features=512, out_features=1024, bias=False)
    (embed_positions): OPTLearnedPositionalEmbedding(2050, 1024)
  )
  (custom_decoder1): MarianDecoder(
    (embed_tokens): Embedding(60269, 1024, padding_idx=60268)
    (embed_positions): MarianSinusoidalPositionalEmbedding(1024, 1024)
    (layers): ModuleList(
      (0-5): 6 x MarianDecoderLayer(
        (self_attn): MarianAttention(
          (k_proj): Linear(in_features=1024, out_features=1024, bias=True)
          (v_proj): Linear(in_features=1024, out_features=1024, bias=True)
          (q_proj): Linear(in_features=1024, out_features=1024, bias=True)
          (out_proj): Linear(in_features=1024, out_features=1024, bias=True)
        )
        (activation_fn): ReLU()
        (self_attn_layer_norm): LayerNorm((1024,), eps=1e-05, elementwise_affine=True)
        (encoder_attn): MarianAttention(
          (k_proj): Linear(in_features=1024, out_features=1024, bias=True)
          (v_proj): Linear(in_features=1024, out_features=1024, bias=True)
          (q_proj): Linear(in_features=1024, out_features=1024, bias=True)
          (out_proj): Linear(in_features=1024, out_features=1024, bias=True)
        )
        (encoder_attn_layer_norm): LayerNorm((1024,), eps=1e-05, elementwise_affine=True)
        (fc1): Linear(in_features=1024, out_features=4096, bias=True)
        (fc2): Linear(in_features=4096, out_features=1024, bias=True)
        (final_layer_norm): LayerNorm((1024,), eps=1e-05, elementwise_affine=True)
      )
    )
  )
  (linear1): Linear(in_features=1024, out_features=1024, bias=True)
  (main_layers): ModuleList(
    (0-23): 24 x OPTDecoderLayer(
      (self_attn): OPTAttention(
        (k_proj): Linear(in_features=1024, out_features=1024, bias=True)
        (v_proj): Linear(in_features=1024, out_features=1024, bias=True)
        (q_proj): Linear(in_features=1024, out_features=1024, bias=True)
        (out_proj): Linear(in_features=1024, out_features=1024, bias=True)
      )
      (activation_fn): ReLU()
      (self_attn_layer_norm): LayerNorm((1024,), eps=1e-05, elementwise_affine=True)
      (fc1): Linear(in_features=1024, out_features=4096, bias=True)
      (fc2): Linear(in_features=4096, out_features=1024, bias=True)
      (final_layer_norm): LayerNorm((1024,), eps=1e-05, elementwise_affine=True)
    )
  )
  (linear2): Linear(in_features=1024, out_features=512, bias=True)
  (custom_encoder2): MarianEncoder(
    (embed_tokens): Embedding(50272, 512, padding_idx=1)
    (embed_positions): OPTLearnedPositionalEmbedding(2050, 1024)
    (layers): ModuleList(
      (0-5): 6 x MarianEncoderLayer(
        (self_attn): MarianAttention(
          (k_proj): Linear(in_features=512, out_features=512, bias=True)
          (v_proj): Linear(in_features=512, out_features=512, bias=True)
          (q_proj): Linear(in_features=512, out_features=512, bias=True)
          (out_proj): Linear(in_features=512, out_features=512, bias=True)
        )
        (self_attn_layer_norm): LayerNorm((512,), eps=1e-05, elementwise_affine=True)
        (activation_fn): SiLU()
        (fc1): Linear(in_features=512, out_features=2048, bias=True)
        (fc2): Linear(in_features=2048, out_features=512, bias=True)
        (final_layer_norm): LayerNorm((512,), eps=1e-05, elementwise_affine=True)
      )
    )
  )
  (en_he_decoder): MarianDecoder(
    (embed_tokens): Embedding(65839, 512, padding_idx=65838)
    (embed_positions): MarianSinusoidalPositionalEmbedding(512, 512)
    (layers): ModuleList(
      (0-5): 6 x MarianDecoderLayer(
        (self_attn): MarianAttention(
          (k_proj): Linear(in_features=512, out_features=512, bias=True)
          (v_proj): Linear(in_features=512, out_features=512, bias=True)
          (q_proj): Linear(in_features=512, out_features=512, bias=True)
          (out_proj): Linear(in_features=512, out_features=512, bias=True)
        )
        (activation_fn): SiLU()
        (self_attn_layer_norm): LayerNorm((512,), eps=1e-05, elementwise_affine=True)
        (encoder_attn): MarianAttention(
          (k_proj): Linear(in_features=512, out_features=512, bias=True)
          (v_proj): Linear(in_features=512, out_features=512, bias=True)
          (q_proj): Linear(in_features=512, out_features=512, bias=True)
          (out_proj): Linear(in_features=512, out_features=512, bias=True)
        )
        (encoder_attn_layer_norm): LayerNorm((512,), eps=1e-05, elementwise_affine=True)
        (fc1): Linear(in_features=512, out_features=2048, bias=True)
        (fc2): Linear(in_features=2048, out_features=512, bias=True)
        (final_layer_norm): LayerNorm((512,), eps=1e-05, elementwise_affine=True)
      )
    )
  )
  (lm_head): Linear(in_features=512, out_features=65839, bias=False)
)
2024-10-13 11:52:15,579 - TrainingLogger - INFO - 
Total parameters: 712,242,176
2024-10-13 11:52:15,579 - TrainingLogger - INFO - Trainable parameters: 211,871,232
2024-10-13 11:52:15,580 - TrainingLogger - INFO - Percentage of trainable parameters: 29.75%
2024-10-13 11:52:15,580 - TrainingLogger - INFO - 
Detailed Layer-wise Information:
2024-10-13 11:52:15,582 - TrainingLogger - INFO - 
…
